assets/tfmodel.tflite (tflite, 15608 bytes, 6 tensors)

arith.constant f4 [16, 32]
000000 87 fc 38 be 9a ee 4f be f9 ee 0d 3e a8 df bc bd
       -0.18065082 -0.20305863 0.13860692 -0.092223465
000010 80 97 24 3e 5a 24 aa bd b7 3a 11 3d 82 5b 06 3e
       0.16073418 -0.08307715 0.035456385 0.13120845
000020 a8 55 43 be 25 62 1e be 56 56 a5 be be 15 46 be
       -0.19075644 -0.15467127 -0.32292432 -0.19344231
000030 a7 a3 3d be c0 4b 96 bd e9 83 37 bd 7b 50 86 be
       -0.1851946 -0.07338667 -0.044803534 -0.26233277
000040 10 ff d0 3c 8d ad 64 be 50 48 a8 3c 1e 4f 2d 3c
       0.025512248 -0.2233183 0.020542294 0.010577945
000050 81 e8 83 3e 14 a0 a6 bd d4 73 98 3d c8 0e a8 be
       0.25763324 -0.08136001 0.074439675 -0.32823777
000060 2e 46 ab 3e 8e 1c 55 3e 0f bc 2a 3d 21 c6 db bd
       0.3345198 0.20811674 0.041683253 -0.107311495
000070 b8 44 50 3d a1 4a a7 3e d0 38 82 3d f9 17 b4 bd
       0.050846785 0.32674125 0.063584924 -0.08793635
000080 0b f9 90 be c2 08 0e 3e 2b 7e dc 3d 25 16 97 be
       -0.28315005 0.13870528 0.10766252 -0.29509082
000090 06 58 49 be 6b 81 80 3e 83 0a 7a 3d 32 da 5e 3e
       -0.19662485 0.25098738 0.06104518 0.21762922
0000a0 8e 01 86 3e 80 d4 bc 3c 20 e4 11 be d0 91 8a be
       0.2617306 0.023050547 -0.14247179 -0.2706437
0000b0 62 34 43 be 70 75 99 be 57 0b 64 be 17 61 ab 3e
       -0.19062951 -0.2997241 -0.22269951 0.3347251
0000c0 08 fb 0e bd 5d d8 12 be 30 54 e0 bc 4a 0e 87 3e
       -0.03490737 -0.14340349 -0.027383894 0.2637809
0000d0 ea 7a c5 bc d7 da 89 3d 8a b5 15 be 8d e1 96 be
       -0.024106462 0.067311935 -0.14620033 -0.29468957
0000e0 46 79 7c 3e 75 6a 96 3d 49 c0 70 3c 30 a4 5b be
       0.24655637 0.07344524 0.014694282 -0.21449351
0000f0 88 0b 2d be 0c d4 fc 3d f0 3f 80 be b4 a9 45 3e
       -0.1689893 0.12345132 -0.2504878 0.19303018
000100 9c 45 66 bc 27 10 ab bd 80 91 0b bd 4c 21 7d be
       -0.014054682 -0.0835269 -0.034074306 -0.24719733
000110 36 05 02 3e 04 49 51 be 74 df 96 3d 08 55 75 bd
       0.126973 -0.2043801 0.07366839 -0.059895545
000120 8a a2 f1 3c 0b 38 b4 be 90 27 7a 3e 70 a8 89 3d
       0.02949645 -0.35199007 0.24429154 0.0672158
000130 fa 3b 2d 3e 37 1a ad 3e b8 a9 5e be c2 55 46 be
       0.1691741 0.33809063 -0.2174443 -0.19368652
000140 73 e1 ae be ed 07 77 3c 00 b0 50 3c f0 96 2c be
       -0.3415638 0.015077573 0.012737274 -0.16854453
000150 1c a5 59 be b5 94 1f be 58 d9 9d bd 6d 88 31 be
       -0.2125439 -0.15584071 -0.07707471 -0.17337199
000160 3b fb ab 3e 11 5d 56 be 4d 05 4e 3e d4 c8 a5 3e
       0.3359011 -0.2093394 0.2011921 0.32379782
000170 c8 54 a3 be 3e 20 3c 3e a0 85 6a bc 50 fe 46 be
       -0.3190062 0.18371674 -0.014314085 -0.1943295
000180 0e 63 97 bc 7a f8 37 3e 75 e9 96 3e 26 9a 43 3e
       -0.01847985 0.1796588 0.2947499 0.19101772
000190 f1 96 5f be f1 05 d1 bc b7 36 ce bd a5 54 97 3e
       -0.21834923 -0.025515528 -0.1006903 0.29556766
0001a0 05 84 15 3e be 44 20 be d0 ac 14 3e 3c 38 b1 be
       0.14601143 -0.15651223 0.14519048 -0.34613216
0001b0 44 cf ca 3d 20 41 da bc 82 74 22 3e 24 d6 c6 3d
       0.09902814 -0.026642382 0.15864757 0.09708813
0001c0 b0 39 f3 3c 17 46 54 be ac 77 af 3d 19 38 94 be
       0.029690593 -0.20729862 0.085677475 -0.2894905
0001d0 1f 08 26 be f7 94 94 be 65 9a 82 3e 7d 5f 9b be
       -0.16214035 -0.290199 0.2550842 -0.3034629
0001e0 80 b9 c5 bd 10 3d be bd 01 c1 ad 3d 4c 9c 6b be
       -0.09654522 -0.092889905 0.08484078 -0.23008841
0001f0 52 41 41 be 35 9e 9f 3e 90 df 8b 3c 25 49 93 3e
       -0.18872574 0.3117539 0.017074376 0.28766742
000200 9a 85 97 3c 7c 11 a2 3e 92 f4 7c be fd 2e b1 be
       0.018496323 0.31653965 -0.24702671 -0.34606162
000210 6c d8 05 3e f6 c3 5f bd 49 63 a7 be 78 bb 0c 3e
       0.1307084 -0.054630242 -0.32692936 0.13743389
000220 70 95 4e be 19 b8 98 be 88 22 14 be 1a fa 35 3e
       -0.20174193 -0.29827955 -0.14466298 0.17771187
000230 ab 1f a4 3e 46 e5 50 3e 80 4b 86 bc 72 c9 b1 be
       0.3205541 0.20399961 -0.016393423 -0.34724003
000240 5b e5 9c be 9a e4 11 3e a6 85 a5 be cc 1a 7f bc
       -0.30643734 0.14247361 -0.32328528 -0.015570354
000250 04 88 d2 3d d4 e2 3f be 0c 7e bb 3d df 24 92 be
       0.10279849 -0.18738872 0.09154901 -0.28543755
000260 89 f5 50 3e 08 b1 24 be a0 c3 94 be ed e7 89 bc
       0.20406164 -0.16083157 -0.290555 -0.016834224
000270 4b d8 8c 3e b0 20 aa 3d bd ed 94 3e 00 44 9b be
       0.27508768 0.08307016 0.2908763 -0.30325317
000280 c6 bd b5 3e 72 5f d8 bd a4 b2 98 be 78 67 2d 3d
       0.35496348 -0.1056508 -0.29823792 0.042335004
000290 c3 b1 0a 3e cf da 50 3d 43 59 bc bd ba a9 5f 3e
       0.13544373 0.050989922 -0.09196713 0.2184209
0002a0 d1 d2 94 3e 0d 64 89 3e cc 62 ff 3d 65 20 96 3e
       0.2906709 0.26834145 0.12470016 0.2932159
0002b0 30 0b 90 be ed 9b 85 be 92 8d 73 be 6a 6a 74 3e
       -0.28133535 -0.26095524 -0.23784474 0.23868719
0002c0 80 56 0e 3b a3 8b 72 3e b3 69 5d be 0f be 4a 3e
       0.0021719038 0.2368608 -0.21622352 0.19799064
0002d0 8f e5 b5 be b7 22 6d 3e d9 d0 a3 3e 48 b5 a0 bc
       -0.35526702 0.23157774 0.31995276 -0.019617692
0002e0 7e 53 d2 bd 41 56 a0 3d d4 16 4d 3d 13 8e 7f bb
       -0.10269831 0.078289516 0.0500706 -0.0038994595
0002f0 9b b9 8f 3e e0 06 3d bc 9c 25 c2 bd 31 2d 8e 3e
       0.28071293 -0.011537284 -0.0947983 0.27768853
000300 22 f4 64 3d e7 7e 1a 3d c6 6c 25 bd b0 43 0f 3d
       0.055896886 0.03771868 -0.040386938 0.03497666
000310 7b 43 93 bd 87 7d 37 be 06 60 28 3e 94 0c 23 be
       -0.07190605 -0.17918979 0.1644288 -0.15922767
000320 23 c7 f8 bd 20 02 58 3d 99 08 46 3e 76 6d e4 bd
       -0.12147357 0.0527364 0.19339217 -0.111536905
000330 68 28 8c bd ba 13 58 be c2 b0 79 3d ec 33 60 be
       -0.068436444 -0.21101275 0.060959585 -0.21894807
000340 07 54 9d be 4c fc b9 bc ab fa 6a be b5 b3 98 be
       -0.3072817 -0.022703312 -0.22947185 -0.29824606
000350 57 77 30 be 24 89 bb 3d ea 40 5b 3e 92 a7 ef 3d
       -0.17233025 0.09157017 0.21411481 0.117018834
000360 a6 ef 77 3d 09 f3 39 be 42 60 44 3e 6a 9f 2a 3e
       0.06053128 -0.18159117 0.19177344 0.16662374
000370 10 d7 96 bd 18 a8 be 3d 44 c0 98 be 06 25 41 3e
       -0.07365239 0.09309405 -0.29834187 0.1886178
000380 3c df 1b 3c 9d 2d fc 3d 39 38 8d 3c ca 30 5e 3e
       0.009513672 0.123133875 0.017238723 0.21698299
000390 b5 74 94 be 61 22 36 bd 84 05 20 3e b6 cf b3 be
       -0.2899529 -0.04446638 0.15627104 -0.35119408
0003a0 00 9f c0 3d 0e 12 63 3e 33 ee d7 bd 94 ec ea bd
       0.09405327 0.22174856 -0.1054348 -0.11470905
0003b0 d8 0d 2d 3d fc c4 a9 3d b3 b9 6e be bc e8 0a 3e
       0.04224953 0.08289525 -0.23313026 0.13565344
0003c0 af f7 b1 3e da 49 e7 bc c1 56 10 bd 8c a2 b0 3e
       0.3475928 -0.028233457 -0.035238985 0.34499013
0003d0 93 dd e1 3d 73 52 31 3a 3b b9 9c 3e b6 84 39 be
       0.1102859 0.00067643 0.3061007 -0.18117031
0003e0 b4 6f 6e 3d 0a 97 8e 3e db 74 60 be e5 eb 22 3e
       0.058211997 0.2784961 -0.21919577 0.15910299
0003f0 c8 cf 7a bd b6 7d 13 3e d8 0f 54 3d a7 c4 b3 bd
       -0.061233312 0.14403424 0.051772922 -0.08777743

arith.constant1 f4 [32, 64]
000000 c8 f5 26 3e 50 b0 34 bd bf 01 4c 3e 58 9b 51 be
       0.16304696 -0.044113457 0.19922541 -0.20469415
000010 2b 06 92 bb 84 fc 19 be 7e d9 7f be 74 b6 06 3e
       -0.0044563017 -0.15037733 -0.2498531 0.13155538
000020 90 58 66 be 19 52 9a bc df 04 15 3d f6 17 f8 bd
       -0.22494721 -0.018837975 0.0363816 -0.12113945
000030 40 3c 0f 3d e3 65 15 bc d5 8f 65 3c f8 26 94 bd
       0.03496957 -0.00911853 0.014011343 -0.07233995
000040 2c d0 35 3e 72 54 f8 bc 70 eb 36 3e 51 ff e8 bc
       0.17755193 -0.030313704 0.1786325 -0.028442057
000050 18 4e b2 bd eb a2 31 3e 6b 98 c4 3c d4 fd 17 3d
       -0.087063015 0.17347305 0.02399846 0.037107304
000060 30 73 49 be f0 58 30 bd f0 67 5b bd ac d8 1a 3e
       -0.19672847 -0.043053567 -0.05356592 0.15121716
000070 75 a1 89 be 18 c5 2e be e8 26 14 be ec 72 1d be
       -0.26880994 -0.17067373 -0.14467967 -0.1537587
000080 4c fb 0d bd 08 24 fb 3d 61 cf 0e be 5d 5b 8f bc
       -0.034663484 0.12262732 -0.13946296 -0.01749962
000090 00 b8 a1 bc e2 74 75 bd a9 2f 80 be 77 86 83 3e
       -0.019741058 -0.05992592 -0.25036362 0.25688526
0000a0 00 3b 71 bb a0 65 74 be 8b 4c 02 3c 3b e1 02 bf
       -0.0036808848 -0.23866892 0.00795282 -0.51124924
0000b0 2a 00 29 3e 33 8f 3e be 26 88 91 be 7b 97 e4 bd
       0.16503969 -0.18609314 -0.28424186 -0.11161705
0000c0 20 8a 3f 3e 8c 7d 27 3e 58 26 4e 3e 08 c6 95 bd
       0.18705034 0.16356486 0.20131814 -0.07313162
0000d0 8b 87 95 3d 00 fa a4 bc 1a 47 e2 bd c0 12 70 3a
       0.073012434 -0.02013874 -0.11048718 0.00091580674
0000e0 48 bf 66 3e c4 c0 35 3e 30 a6 62 3d 64 e2 a9 3d
       0.22533906 0.17749316 0.05533427 0.08295134
0000f0 de 23 01 3d 54 7a 65 3e e5 f9 d4 3d 60 ef d3 3d
       0.031528346 0.22409946 0.10399226 0.103483915
000100 e0 a5 8f bc a0 fe 9e 3d 32 98 09 3d 50 ee 66 3e
       -0.01753515 0.077634096 0.03359241 0.22551847
000110 81 05 73 3e 00 30 68 3a 29 61 a3 bd 34 10 27 3e
       0.23732568 0.000885725 -0.07977516 0.16314775
000120 80 9f 62 3e 8f ba 53 3e 81 58 93 bd ba 79 55 3e
       0.22131157 0.20676635 -0.07194615 0.20847216
000130 95 c7 20 3e 6a f5 33 be b0 50 19 be fc fd 47 3e
       0.15701135 -0.17574087 -0.14972186 0.19530481
000140 20 22 24 be 31 c2 6a bd 40 ce 18 be 61 f5 11 3d
       -0.16028643 -0.0573141 -0.14922428 0.035634402
000150 7c 03 14 3e 01 0e 84 be a3 e1 1e bd 29 80 e0 bb
       0.14454454 -0.25791934 -0.038789403 -0.0068512154
000160 b0 85 bf 3d 28 84 39 be 80 a1 8c bb a0 a8 fc bd
       0.09351671 -0.1811682 -0.0042917132 -0.1233685
000170 46 27 4a 3d 22 61 72 3e 1c fa 04 3e 78 8d 47 3e
       0.04935386 0.23669866 0.12986034 0.1948756
000180 44 08 53 3e 40 4d 9e 3d bc c0 23 bd b7 d2 c7 bd
       0.20608622 0.07729578 -0.039978728 -0.097569875
000190 20 a1 c7 3c a5 17 4b be 6e 8d 39 be a5 e1 65 be
       0.024368823 -0.19833238 -0.18120357 -0.22449358
0001a0 ac 77 36 3e 00 79 7c bd 48 a3 ad bb df 83 12 be
       0.17819089 -0.061638832 -0.0052990057 -0.14308117
0001b0 7e 8a 85 bd b5 76 d7 bc 24 94 51 be d7 4c 4a 3b
       -0.06520556 -0.026301721 -0.20466667 0.0030868554
0001c0 4c 46 71 3e 93 f9 94 bd 7a 49 ff 3d a0 a6 c7 bd
       0.23561972 -0.07274165 0.124651864 -0.09748578
0001d0 ad bf 82 3e a0 54 02 be 9d f9 7c be 5a 91 9f bc
       0.25536862 -0.12727594 -0.24704595 -0.019478489
0001e0 22 ba 96 bd 20 63 66 bd 40 06 4d 3e d9 31 48 be
       -0.07359721 -0.056246877 0.20021915 -0.19550265
0001f0 e8 1e 16 bd e8 93 d1 bd a2 2b c4 bc c0 c5 05 3e
       -0.03665057 -0.10233289 -0.023946587 0.13063717
000200 00 20 3b 3c 98 36 85 bd 25 96 9b 3d 58 1e 2a be
       0.011421204 -0.065045536 0.07596997 -0.16613138
000210 dd 4e ef bd 4c 73 73 3e c6 5f 4b be 48 17 5e be
       -0.11684964 0.23774451 -0.19860753 -0.21688569
000220 28 d9 ba 3d b5 6f d8 3d b7 64 2a 3e 45 89 c3 3d
       0.091234505 0.105681814 0.16639982 0.095476665
000230 fa 08 9e bd 63 f1 f0 bb f3 f4 ef bd 40 c7 ac 3c
       -0.07716556 -0.0073529943 -0.11716642 0.021091104
000240 67 55 84 3d 57 b6 dc 3d 00 4a 5b 3c 17 94 27 be
       0.06461602 0.10776966 0.013384342 -0.16365086
000250 e0 e5 e1 3d 58 4c 90 bd ad a8 16 be 06 bc 96 3e
       0.11030173 -0.070458114 -0.14712782 0.29440325
000260 e0 5e 6c 3d dc 10 7e 3e 30 69 37 3d c0 0d 57 3e
       0.057707667 0.24811119 0.04477805 0.21001339
000270 30 39 0c be 1e 7a 4e 3a 50 b5 0b bd d0 46 84 3d
       -0.1369369 0.0007876473 -0.03410846 0.06458819
000280 8c b9 b3 3d b0 35 b0 3d fa 21 2e 3e 72 04 84 3d
       0.08775625 0.0860399 0.17005149 0.064461604
000290 24 4c 6f 3e d8 87 78 be 37 9c 97 bb db 19 6a be
       0.23368889 -0.2427057 -0.0046267766 -0.22861426
0002a0 40 f2 fd bc 10 26 d8 3d cd 2d 15 3e e9 18 75 3e
       -0.030999303 0.10554135 0.14568253 0.23935284
0002b0 53 f4 36 3e a6 62 5f be 15 e2 74 3e a1 c7 2f be
       0.1786664 -0.21814975 0.23914368 -0.17165996
0002c0 b0 7e 71 3e 93 b3 2a 3e 31 0a 6b 3c a8 30 a0 3d
       0.23583484 0.16670065 0.014345692 0.078217804
0002d0 e2 18 f7 bd 90 d2 13 3e 72 15 48 bc 79 d1 98 bd
       -0.12065293 0.14435792 -0.012212144 -0.07461829
0002e0 6a 96 64 be 08 d3 02 3e ec 52 72 3e be ea 2f 3e
       -0.22323003 0.12775815 0.23664445 0.17179391
0002f0 3b 21 16 bd c8 81 7a 3e b5 2d f3 3d 88 a8 51 3e
       -0.036652785 0.2446357 0.11873952 0.20474446
000300 f0 0b 40 3e 88 9c 11 be 70 5e 45 3d e4 bf 5f 3e
       0.18754554 -0.14219868 0.048185766 0.21850544
000310 60 ed 26 3e 1c f9 50 be 44 14 1d be d4 ab 66 3e
       0.16301489 -0.20407528 -0.15339762 0.22526485
000320 f4 28 2a be 98 82 07 3e ac 30 78 be c8 f6 15 be
       -0.16617185 0.13233411 -0.24237317 -0.14644921
000330 b0 f2 3e 3e cc c6 56 3e b0 ed 2b be 70 01 6f be
       0.18647265 0.20974272 -0.1678989 -0.23340392
000340 10 cc 92 3d 0c 95 6d be 80 f0 b4 bc e0 e4 ba bc
       0.07167828 -0.23201388 -0.022087336 -0.022814214
000350 7c a7 71 be 1c 0e 47 3e 74 2b 32 3e 3c 2e 75 be
       -0.23599046 0.19438976 0.17399389 -0.23943418
000360 c4 25 14 3e b0 ec 03 3d 84 e9 6f 3e 88 94 4c 3e
       0.14467531 0.032208145 0.23428923 0.19978535
000370 18 63 1e be a8 21 54 3e 08 95 c8 3d 70 b4 9a bd
       -0.15467489 0.20715964 0.097940505 -0.07553947
000380 d0 bf 53 be 40 c6 3f be 1c 8c 73 be 28 ea fb 3d
       -0.2067864 -0.1872797 -0.23783916 0.12300521
000390 2c da 4e 3e 84 7a 1e be 60 e6 82 bc 98 b6 14 3e
       0.20200413 -0.15476424 -0.015978992 0.14522779
0003a0 00 36 e3 3b a8 26 e8 bd f0 a5 78 bd 70 fc 84 bd
       0.0069339275 -0.11335498 -0.060705125 -0.06493461
0003b0 64 a5 24 3e d0 dc 6d 3e 28 bb 40 3e c0 07 3c 3d
       0.16078717 0.23228765 0.18821394 0.04590583
0003c0 c0 0f f2 3d 60 ab 8d bc 80 02 a8 3c 60 f6 5c be
       0.1181941 -0.017293632 0.020509005 -0.2157836
0003d0 54 f1 24 be 70 ce a8 bd 60 79 07 be 00 88 d0 3d
       -0.16107684 -0.082425 -0.13229895 0.1018219
0003e0 c8 f0 9a bd d0 d4 0d be 80 af b5 3b 48 99 2e be
       -0.07565457 -0.13850713 0.005544603 -0.1705066
0003f0 00 f6 77 bc 40 8b 91 bd d0 4d 48 be b8 99 d9 3d
       -0.015134335 -0.07106638 -0.19560933 0.10625023

arith.constant2 f4 [16]
000000 f9 eb 0f 3d 2a 1c 9d 3c bc a9 ea 3c 8c 55 c9 3d
       0.03513715 0.019178469 0.028645389 0.0983077
000010 5f c6 1c 3d 8c 0e 29 3d ce 06 48 bb 6f ee b5 3c
       0.03827512 0.04127364 -0.0030521634 0.02220842
000020 30 f1 c6 3c 76 6f 39 3d 8a f7 b4 3b 1a 68 a1 3c
       0.024284929 0.045272313 0.005522673 0.01970296
000030 3c 02 82 3d 19 64 47 bd be 63 c2 bd b7 db 60 3c
       0.063480824 -0.048679445 -0.094916806 0.013724259

sequential_1/dense_1_2/BiasAdd/ReadVariableOp f4 [32]
000000 ed 67 cf 3c 09 29 86 bc a8 d5 36 bc 00 00 00 00
       0.02531811 -0.016376989 -0.011159338 0.0
000010 3b 8b 06 bb 8d 46 5f bc 1a 78 7a 3b 00 00 00 00
       -0.0020529765 -0.01362766 0.0038218559 0.0
000020 b8 33 45 bc 00 00 00 00 85 16 f3 bc 00 00 00 00
       -0.0120362565 0.0 -0.029673824 0.0
000030 00 00 00 00 00 00 00 00 43 41 ee bc 00 00 00 00
       0.0 0.0 -0.029083854 0.0
000040 00 00 00 00 26 77 49 3c 20 e1 a7 bb d4 98 0a bc
       0.0 0.012296474 -0.0051232725 -0.008459289
000050 0c b4 fd 3b 7b 89 0d bd 00 00 00 00 1d 76 9a bc
       0.0077424105 -0.03455494 0.0 -0.018855149
000060 59 bf 9b bb c0 84 e4 bc 55 14 f9 bb 5f fd d3 bb
       -0.004753035 -0.027895331 -0.0076013007 -0.006469413
000070 00 00 00 00 00 00 00 00 00 00 00 00 fa a1 f7 bc
       0.0 0.0 0.0 -0.030228604

sequential_1/dense_1/BiasAdd/ReadVariableOp f4 [64]
000000 00 00 00 00 00 00 00 00 9f d5 e5 bc 00 00 00 00
       0.0 0.0 -0.028055964 0.0
000010 13 04 aa bc 00 00 00 00 c7 b1 f1 3b 00 00 00 00
       -0.020753896 0.0 0.007375929 0.0
000020 00 00 00 00 cd 5c 97 bc 12 bb 88 bc c5 dd f3 bc
       0.0 -0.018476868 -0.016690765 -0.029768834
000030 9a 79 fb bc 48 23 62 bb 83 55 7b 3c 00 00 00 00
       -0.030697633 -0.0034505893 0.015340212 0.0
000040 ee d4 e8 bc 16 34 ae bb 00 00 00 00 fe 84 15 bb
       -0.028421845 -0.0053162677 0.0 -0.0022814865
000050 00 00 00 00 36 9a 96 3c 90 a3 ef bc 05 d2 bf 3c
       0.0 0.01838408 -0.029252797 0.023415575
000060 00 00 00 00 00 00 00 00 00 00 00 00 00 00 00 00
       0.0 0.0 0.0 0.0
000070 e2 62 7b bc 37 7d aa bd 00 00 00 00 00 00 00 00
       -0.0153434 -0.08324664 0.0 0.0
000080 fd 68 0d bd 00 00 00 00 48 31 33 bd 8a e1 85 bc
       -0.034523953 0.0 -0.04374817 -0.016342897
000090 00 00 00 00 27 d9 3c bc 0d a3 80 bb 41 38 ff 3c
       0.0 -0.0115263825 -0.003925687 0.031154754
0000a0 00 00 00 00 00 00 00 00 c8 c5 37 bb 89 87 07 3c
       0.0 0.0 -0.002804147 0.00827206
0000b0 ac 33 70 ba 4b 36 64 bc 88 c1 05 bd 02 d7 64 3c
       -0.0009162973 -0.01392896 -0.03265527 0.0139672775
0000c0 00 00 00 00 4b af 6c bb 9e 07 dd 3b 00 00 00 00
       0.0 -0.0036115225 0.006745293 0.0
0000d0 0f 7e be 3b 00 00 00 00 77 87 9a bc 5e be 96 bc
       0.005813367 0.0 -0.018863423 -0.018401321
0000e0 e0 5d 16 bc 00 00 00 00 00 00 00 00 89 e5 8e 3b
       -0.009177655 0.0 0.0 0.004360859
0000f0 d1 3a 6c 3c 00 00 00 00 6b 58 aa bb 00 00 00 00
       0.01441832 0.0 -0.0051985285 0.0

sequential_1/dense_1/MatMul f4 [64, 11]
000000 80 54 76 3d ca 5e 4f be 50 c2 7e 3d f4 7d 37 bd
       0.06013918 -0.20251003 0.06219703 -0.044797853
000010 0c 96 cf bd ac 45 00 3e 00 5a 1e 3d 6d a9 8a 3e
       -0.10136041 0.12526578 0.03866005 0.27082387
000020 41 fb 0b be 98 50 35 be 80 60 ef 3d 04 2f bd bd
       -0.13670065 -0.17706525 0.11688328 -0.09237483
000030 ba a0 58 be e5 68 8f 3e 86 37 65 be 40 36 71 bc
       -0.21155062 0.28009716 -0.22384462 -0.014722407
000040 b8 d3 01 3e 20 a7 c6 bd ac a5 48 be f5 a4 85 be
       0.1267842 -0.09699845 -0.19594449 -0.26102415
000050 e8 dc 47 3e a6 f8 72 3e 6a 97 fd 3c 3e 99 6f be
       0.19517863 0.23727664 0.030955989 -0.23398301
000060 aa 71 00 3e f3 4e 4f 3e 74 1c 87 3d 94 7f 57 3e
       0.1254336 0.2024496 0.06597224 0.21044761
000070 98 2f c7 be c2 e8 b3 bd 1c b2 3b 3e fd 80 bc 3d
       -0.389035 -0.087846294 0.18329662 0.0920429
000080 02 e2 ee 3d 78 93 e1 3d d2 73 34 3e 0c a7 9e bd
       0.11664201 0.110144556 0.17622307 -0.077467054
000090 d6 73 53 be e0 3f 4e bd 2a 5f 00 3e 80 01 0f 3e
       -0.20649657 -0.050353885 0.12536302 0.13965416
0000a0 82 6a 61 3e 90 ae 84 bc b4 2a 76 bd a4 26 8f be
       0.22013286 -0.01619652 -0.06009932 -0.27959168
0000b0 7b d3 5b 3e 3b 78 23 be a9 e3 48 3e bf 45 3f 3e
       0.21467392 -0.15963833 0.19618095 0.1867895
0000c0 64 d4 cd bc 21 44 4f 3e 40 00 38 3e aa 44 4c 3e
       -0.02512569 0.20240833 0.17968845 0.19948068
0000d0 f5 bd 6a be 50 18 82 3e 2a 63 44 3e 7a e1 f9 bd
       -0.22924025 0.25409174 0.19178453 -0.12201209
0000e0 fc ee 8c be 13 26 85 3e 72 5f 73 3e b8 11 71 be
       -0.2752608 0.2600561 0.23766878 -0.23541915
0000f0 dd c9 09 be ef 4c 88 3e 74 f0 ca 3d fc 2e 1c be
       -0.13455911 0.26621196 0.09909144 -0.15252298
000100 50 10 4a be 49 e1 8b 3e bd 18 60 3e 64 75 68 3e
       -0.19732785 0.27320316 0.21884437 0.22701031
000110 6e 12 0f be f7 70 85 be 90 18 4e 3e f0 1b 4f be
       -0.13971874 -0.26062748 0.20126557 -0.20225501
000120 86 3b 25 be ba 96 b4 3d 20 28 9e 3d 1c 35 60 3e
       -0.16135988 0.08817811 0.07722497 0.2189526
000130 0e 36 25 be e6 e4 e2 bd b8 d2 4a bd 46 01 ee bd
       -0.16133901 -0.11078815 -0.049517363 -0.11621337
000140 c0 13 3a bc 10 ab 93 bd d0 2d e4 bc 11 26 87 be
       -0.011357248 -0.07210362 -0.027853876 -0.2639623
000150 80 68 f6 3d 60 93 bb 3d 9c e1 8d 3d 33 7b 54 be
       0.120316505 0.09158969 0.06927797 -0.20750122
000160 6f fd 87 3e 80 27 3a 3b f8 23 a5 3d 56 55 26 be
       0.26560542 0.0028404891 0.08063501 -0.1624349
000170 e9 cf 89 be 8e c7 36 be a2 0d 89 be 50 65 d3 3c
       -0.26916435 -0.17849562 -0.26768214 0.025805146
000180 1c e3 50 3e 8c 00 0f 3e 30 58 6b be 8a 97 cd bd
       0.20399135 0.13965052 -0.2298286 -0.100386694
000190 50 a1 2e 3e 37 68 5f bd 57 b6 e4 3d c3 f8 eb 3d
       0.17053723 -0.054542746 0.11167591 0.11522057
0001a0 6e 08 99 3e 13 4f 8a 3e 91 08 3a be fd 06 c3 3d
       0.29889244 0.27013454 -0.1816733 0.09522817
0001b0 42 db 54 be 39 dd c3 3d 45 f5 42 3e c6 54 fa 3d
       -0.20786765 0.09563679 0.19038875 0.122232005
0001c0 95 b7 60 3e d3 a8 7e 3e fa e3 57 be 8d 8a 6b be
       0.21945031 0.24869089 -0.2108306 -0.23002072
0001d0 e5 90 1c be e6 e4 c2 be 95 68 1d be a9 8a 17 3e
       -0.15289648 -0.3806526 -0.15371926 0.14798988
0001e0 55 f3 ad 3d 8b 70 82 3e 72 7d ca bc 95 9f 8a be
       0.084936775 0.25476488 -0.02471802 -0.27074876
0001f0 2e 10 21 3e 8a 7f 5a 3e 8d d4 fc be 61 98 f7 be
       0.15728828 0.21337715 -0.49380913 -0.48358443
000200 33 21 25 bf 59 cb 95 be 9f 78 a5 3d b7 c5 fd bd
       -0.64503783 -0.29256704 0.08079647 -0.12391227
000210 3d 4e c9 3d 4d 78 2f 3d f2 60 1e 3e 37 d4 26 bd
       0.09829376 0.042839337 0.15466669 -0.040729728
000220 84 c9 ef 3d 08 78 03 bf de db 89 3e d1 9b db 3e
       0.11708358 -0.5135503 0.26925558 0.42892316
000230 42 07 9c 3d be 63 a3 be 54 a4 b6 bd d9 87 94 3e
       0.07618572 -0.31912035 -0.08918062 0.29009894
000240 9c 28 04 be ab 4e 76 3d 80 5f 2e 3e 54 be 95 bd
       -0.12906116 0.060133617 0.17028618 -0.07311693
000250 ae 30 81 be 40 0c 66 be d3 a0 14 3d e9 02 06 3e
       -0.25232452 -0.2246561 0.036286186 0.13087048
000260 ef f2 0f 3e 4a b0 d5 bc da 9f c1 bd 0a af 49 bd
       0.14057516 -0.026085038 -0.094543174 -0.049239196
000270 aa 8c d4 bb 2d 48 36 3e 33 cd f3 bc 6b 8b ac 3d
       -0.006486495 0.1780097 -0.029760933 0.08425029
000280 e5 76 bc 3d 20 85 55 be af d7 59 3d a7 45 8e 3d
       0.09202365 -0.20851564 0.053184208 0.06946879
000290 be 3c b5 bc 40 08 45 3d c0 02 92 bb 5c 8d dd bd
       -0.02212369 0.04810357 -0.004455894 -0.10817978
0002a0 15 22 85 3e ec 0e 6a be b0 a6 e5 bc 7e e3 98 bd
       0.26002565 -0.22857255 -0.028033584 -0.07465266
0002b0 9b 6f 47 be a2 14 05 3e 66 ee e5 bd 5c 8a 43 bd
       -0.19476168 0.12996152 -0.112271115 -0.04773937
0002c0 b0 61 19 3e 3b 1e ef bd 50 73 a1 bb cd a3 6a 3e
       0.14978671 -0.11675688 -0.0049270764 0.22914048
0002d0 a0 2d 08 bd 50 7f 90 3e 38 7e ad be 39 87 27 bc
       -0.033246636 0.28222132 -0.3388536 -0.010225111
0002e0 96 85 1a be 80 87 0a 3e 33 fc 04 3e 22 10 81 3e
       -0.15090021 0.13528252 0.12986831 0.2520762
0002f0 4c 1b dc 3c 6a 30 e9 3d 68 ba 14 be 98 b1 63 be
       0.026868485 0.113861874 -0.14524233 -0.22235715
000300 15 f4 b8 3e ad 84 b6 3d 7c 9b 5a bd b7 5f 1f 3e
       0.3612372 0.08912025 -0.053370938 0.15563856
000310 09 6c 26 3e 80 45 66 3e b5 73 19 be c0 ee cf bd
       0.1625215 0.2248745 -0.14985545 -0.1015296
000320 1b e2 8d be 54 9e b1 3d d0 47 34 3d 8b 7a 0b be
       -0.27711567 0.08672777 0.0440138 -0.13620965
000330 6e b2 2f 3e a0 4b 34 3d a6 22 56 3e fa 8d 99 bd
       0.1715791 0.044017434 0.20911655 -0.07497783
000340 b4 8c bc bd a2 cd d4 3d 96 78 0c 3e 0c 95 9a 3d
       -0.092065245 0.10390784 0.13717875 0.0754796
000350 a9 d2 2d 3e 78 e8 d7 3c 86 ec 22 be 6a be 20 3e
       0.16974892 0.026355967 -0.15910539 0.15697637
000360 92 7b 92 3e 59 e4 5e be 1d 25 1f be 68 4b ac 3d
       0.28609902 -0.21766795 -0.15541501 0.0841282
000370 0f 18 84 be 75 1b 75 be be a5 4f be 56 3e 90 be
       -0.25799605 -0.23936255 -0.2027807 -0.2817256
000380 24 e2 85 3d c1 9f 8e 3e 8d bf 48 be b8 1a 6e 3d
       0.065372735 0.27856258 -0.19604321 0.05813095
000390 b0 5f 98 bd 10 7a bf 3d e6 b2 80 be cd b7 5e be
       -0.07440126 0.093494534 -0.2513649 -0.21749802
0003a0 96 64 00 3e c4 60 24 3e 99 d0 a4 bd de 13 24 3e
       0.1253837 0.16052538 -0.08047599 0.16023204
0003b0 a4 d6 56 3e a3 dc 95 3e b6 ec 29 3e c7 64 9b 3d
       0.20980316 0.29269895 0.16594204 0.07587581
0003c0 51 70 bb 3d 07 8e 34 3e 56 b2 56 3c 22 9b 64 3e
       0.09152282 0.17632304 0.013104042 0.22324803
0003d0 b1 98 12 be cb e5 13 be c8 e6 54 3e 18 71 02 bf
       -0.1431606 -0.14443128 0.20791161 -0.5095382
0003e0 11 d6 85 3e 70 a4 43 be b2 89 fc bd 46 58 b4 3d
       0.26139882 -0.19105697 -0.12330951 0.08805899
0003f0 e6 00 0d 3e dc 74 1d be 18 7d 6b 3e 7d 50 8c 3e
       0.13769874 -0.1537661 0.22996938 0.27405158
